…
.norm2_1.weight', 'dec_block.3.norm2_1.bias', 'dec_block.3.norm2_2.weight', 'dec_block.3.norm2_2.bias', 'dec_block.3.norm2.weight', 'dec_block.3.norm2.bias', 'dec_block.3.mlp.fc1.weight', 'dec_block.3.mlp.fc1.bias', 'dec_block.3.mlp.fc2.weight', 'dec_block.3.mlp.fc2.bias', 'norm_1.weight', 'norm_1.bias', 'norm_2.weight', 'norm_2.bias', 'norm_3.weight', 'norm_3.bias', 'norm_4.weight', 'norm_4.bias', 'ar_norm.weight', 'ar_norm.bias', 'ar_pred.weight', 'ar_pred.bias'])
[10/28 01:32:08] detectron2 INFO: Model:
GeneralizedRCNN(
  (backbone): SimpleFeaturePyramid(
    (simfp_2): Sequential(
      (0): ConvTranspose2d(768, 384, kernel_size=(2, 2), stride=(2, 2))
      (1): LayerNorm()
      (2): GELU(approximate='none')
      (3): ConvTranspose2d(384, 192, kernel_size=(2, 2), stride=(2, 2))
      (4): Conv2d(
        192, 256, kernel_size=(1, 1), stride=(1, 1), bias=False
        (norm): LayerNorm()
      )
      (5): Conv2d(
        256, 256, kernel_size=(3, 3), stride=(1, 1), padding=(1, 1), bias=False
        (norm): LayerNorm()
      )
    )
    (simfp_3): Sequential(
      (0): ConvTranspose2d(768, 384, kernel_size=(2, 2), stride=(2, 2))
      (1): Conv2d(
        384, 256, kernel_size=(1, 1), stride=(1, 1), bias=False
        (norm): LayerNorm()
      )
      (2): Conv2d(
        256, 256, kernel_size=(3, 3), stride=(1, 1), padding=(1, 1), bias=False
        (norm): LayerNorm()
      )
    )
    (simfp_4): Sequential(
      (0): Conv2d(
        768, 256, kernel_size=(1, 1), stride=(1, 1), bias=False
        (norm): LayerNorm()
      )
      (1): Conv2d(
        256, 256, kernel_size=(3, 3), stride=(1, 1), padding=(1, 1), bias=False
        (norm): LayerNorm()
      )
    )
    (simfp_5): Sequential(
      (0): MaxPool2d(kernel_size=2, stride=2, padding=0, dilation=1, ceil_mode=False)
      (1): Conv2d(
        768, 256, kernel_size=(1, 1), stride=(1, 1), bias=False
        (norm): LayerNorm()
      )
      (2): Conv2d(
        256, 256, kernel_size=(3, 3), stride=(1, 1), padding=(1, 1), bias=False
        (norm): LayerNorm()
      )
    )
    (net): VisionMambaDet(
      (patch_embed): PatchEmbed(
        (proj): Conv2d(3, 768, kernel_size=(16, 16), stride=(16, 16))
        (norm): Identity()
      )
      (pos_drop): Dropout(p=0.0, inplace=False)
      (drop_path): DropPath()
      (layers): ModuleList(
        (0-1): 2 x Block(
          (mixer): Mamba(
            (in_proj): Linear(in_features=768, out_features=1536, bias=False)
            (conv1d): Conv1d(768, 768, kernel_size=(4,), stride=(1,), padding=(3,), groups=768)
            (act): SiLU()
            (x_proj): Linear(in_features=768, out_features=80, bias=False)
            (dt_proj): Linear(in_features=48, out_features=768, bias=True)
            (conv1d_b): Conv1d(768, 768, kernel_size=(4,), stride=(1,), padding=(3,), groups=768)
            (x_proj_b): Linear(in_features=768, out_features=80, bias=False)
            (dt_proj_b): Linear(in_features=48, out_features=768, bias=True)
            (conv1d_c): Conv1d(768, 768, kernel_size=(4,), stride=(1,), padding=(3,), groups=768)
            (x_proj_c): Linear(in_features=768, out_features=80, bias=False)
            (dt_proj_c): Linear(in_features=48, out_features=768, bias=True)
            (conv1d_c_b): Conv1d(768, 768, kernel_size=(4,), stride=(1,), padding=(3,), groups=768)
            (x_proj_c_b): Linear(in_features=768, out_features=80, bias=False)
            (dt_proj_c_b): Linear(in_features=48, out_features=768, bias=True)
            (out_proj): Linear(in_features=768, out_features=768, bias=False)
          )
          (mlp): SwiGLU(
            (w1): Linear(in_features=768, out_features=2048, bias=True)
            (w2): Linear(in_features=768, out_features=2048, bias=True)
            (act): SiLU()
            (ffn_ln): Identity()
            (w3): Linear(in_features=2048, out_features=768, bias=True)
            (drop): Dropout(p=0.0, inplace=False)
          )
          (drop_path): Identity()
          (norm1): LayerNorm((768,), eps=1e-05, elementwise_affine=True)
          (norm2): LayerNorm((768,), eps=1e-05, elementwise_affine=True)
        )
        (2-11): 10 x Block(
          (mixer): Mamba(
            (in_proj): Linear(in_features=768, out_features=1536, bias=False)
            (conv1d): Conv1d(768, 768, kernel_size=(4,), stride=(1,), padding=(3,), groups=768)
            (act): SiLU()
            (x_proj): Linear(in_features=768, out_features=80, bias=False)
            (dt_proj): Linear(in_features=48, out_features=768, bias=True)
            (conv1d_b): Conv1d(768, 768, kernel_size=(4,), stride=(1,), padding=(3,), groups=768)
            (x_proj_b): Linear(in_features=768, out_features=80, bias=False)
            (dt_proj_b): Linear(in_features=48, out_features=768, bias=True)
            (conv1d_c): Conv1d(768, 768, kernel_size=(4,), stride=(1,), padding=(3,), groups=768)
            (x_proj_c): Linear(in_features=768, out_features=80, bias=False)
            (dt_proj_c): Linear(in_features=48, out_features=768, bias=True)
            (conv1d_c_b): Conv1d(768, 768, kernel_size=(4,), stride=(1,), padding=(3,), groups=768)
            (x_proj_c_b): Linear(in_features=768, out_features=80, bias=False)
            (dt_proj_c_b): Linear(in_features=48, out_features=768, bias=True)
            (out_proj): Linear(in_features=768, out_features=768, bias=False)
          )
          (mlp): SwiGLU(
            (w1): Linear(in_features=768, out_features=2048, bias=True)
            (w2): Linear(in_features=768, out_features=2048, bias=True)
            (act): SiLU()
            (ffn_ln): Identity()
            (w3): Linear(in_features=2048, out_features=768, bias=True)
            (drop): Dropout(p=0.0, inplace=False)
          )
          (drop_path): DropPath()
          (norm1): LayerNorm((768,), eps=1e-05, elementwise_affine=True)
          (norm2): LayerNorm((768,), eps=1e-05, elementwise_affine=True)
        )
      )
    )
    (top_block): LastLevelMaxPool()
  )
  (proposal_generator): RPN(
    (rpn_head): StandardRPNHead(
      (conv): Sequential(
        (conv0): Conv2d(
          256, 256, kernel_size=(3, 3), stride=(1, 1), padding=(1, 1)
          (activation): ReLU()
        )
        (conv1): Conv2d(
          256, 256, kernel_size=(3, 3), stride=(1, 1), padding=(1, 1)
          (activation): ReLU()
        )
      )
      (objectness_logits): Conv2d(256, 3, kernel_size=(1, 1), stride=(1, 1))
      (anchor_deltas): Conv2d(256, 12, kernel_size=(1, 1), stride=(1, 1))
    )
    (anchor_generator): DefaultAnchorGenerator(
      (cell_anchors): BufferList()
    )
  )
  (roi_heads): CascadeROIHeads(
    (box_pooler): ROIPooler(
      (level_poolers): ModuleList(
        (0): ROIAlign(output_size=(7, 7), spatial_scale=0.25, sampling_ratio=0, aligned=True)
        (1): ROIAlign(output_size=(7, 7), spatial_scale=0.125, sampling_ratio=0, aligned=True)
        (2): ROIAlign(output_size=(7, 7), spatial_scale=0.0625, sampling_ratio=0, aligned=True)
        (3): ROIAlign(output_size=(7, 7), spatial_scale=0.03125, sampling_ratio=0, aligned=True)
      )
    )
    (box_head): ModuleList(
      (0-2): 3 x FastRCNNConvFCHead(
        (conv1): Conv2d(
          256, 256, kernel_size=(3, 3), stride=(1, 1), padding=(1, 1), bias=False
          (norm): LayerNorm()
          (activation): ReLU()
        )
        (conv2): Conv2d(
          256, 256, kernel_size=(3, 3), stride=(1, 1), padding=(1, 1), bias=False
          (norm): LayerNorm()
          (activation): ReLU()
        )
        (conv3): Conv2d(
          256, 256, kernel_size=(3, 3), stride=(1, 1), padding=(1, 1), bias=False
          (norm): LayerNorm()
          (activation): ReLU()
        )
        (conv4): Conv2d(
          256, 256, kernel_size=(3, 3), stride=(1, 1), padding=(1, 1), bias=False
          (norm): LayerNorm()
          (activation): ReLU()
        )
        (flatten): Flatten(start_dim=1, end_dim=-1)
        (fc1): Linear(in_features=12544, out_features=1024, bias=True)
        (fc_relu1): ReLU()
      )
    )
    (box_predictor): ModuleList(
      (0-2): 3 x FastRCNNOutputLayers(
        (cls_score): Linear(in_features=1024, out_features=81, bias=True)
        (bbox_pred): Linear(in_features=1024, out_features=4, bias=True)
      )
    )
    (mask_pooler): ROIPooler(
      (level_poolers): ModuleList(
        (0): ROIAlign(output_size=(14, 14), spatial_scale=0.25, sampling_ratio=0, aligned=True)
        (1): ROIAlign(output_size=(14, 14), spatial_scale=0.125, sampling_ratio=0, aligned=True)
        (2): ROIAlign(output_size=(14, 14), spatial_scale=0.0625, sampling_ratio=0, aligned=True)
        (3): ROIAlign(output_size=(14, 14), spatial_scale=0.03125, sampling_ratio=0, aligned=True)
      )
    )
    (mask_head): MaskRCNNConvUpsampleHead(
      (mask_fcn1): Conv2d(
        256, 256, kernel_size=(3, 3), stride=(1, 1), padding=(1, 1), bias=False
        (norm): LayerNorm()
        (activation): ReLU()
      )
      (mask_fcn2): Conv2d(
        256, 256, kernel_size=(3, 3), stride=(1, 1), padding=(1, 1), bias=False
        (norm): LayerNorm()
        (activation): ReLU()
      )
      (mask_fcn3): Conv2d(
        256, 256, kernel_size=(3, 3), stride=(1, 1), padding=(1, 1), bias=False
        (norm): LayerNorm()
        (activation): ReLU()
      )
      (mask_fcn4): Conv2d(
        256, 256, kernel_size=(3, 3), stride=(1, 1), padding=(1, 1), bias=False
        (norm): LayerNorm()
        (activation): ReLU()
      )
      (deconv): ConvTranspose2d(256, 256, kernel_size=(2, 2), stride=(2, 2))
      (deconv_relu): ReLU()
      (predictor): Conv2d(256, 80, kernel_size=(1, 1), stride=(1, 1))
    )
  )
)
[10/28 04:59:53] detectron2 INFO: Rank of current process: 0. World size: 1
[10/28 04:59:53] detectron2 INFO: Environment info:
-------------------------------  -------------------------------------------------------------------------------
sys.platform                     linux
Python                           3.10.13 (main, Sep 11 2023, 13:44:35) [GCC 11.2.0]
…
